auto_encoder.pth (torch, 208685 bytes, 14 tensors)

weight f4 [16, 12, 9]
-0.18995032 -0.12991653 -0.13709792 -0.05806479 0.10471148 0.13765141 0.00813468 0.16300756
0.00017438809 -0.31808788 -0.15330298 -0.23594293 -0.17641081 -0.22201157 -0.042035047 -0.10669458
-0.023049684 0.03039687 -0.2229542 -0.2258156 -0.0663198 -0.20834002 -0.23072152 -0.27873418
-0.09091431 -0.19720428 -0.023040501 0.2730424 0.18387416 0.09816474 0.06628433 0.0996058
0.017731406 -0.04171452 0.03280645 -0.11483309 0.12087508 0.097228505 0.06900824 0.17882971
0.14223963 0.21179637 0.048935834 0.15925586 0.14119868 -0.18040389 -0.21168332 -0.17361973
-0.19380821 -0.12847573 -0.14054416 -0.104913116 0.09059989 0.15922509 0.027280334 0.16744702
0.12507966 0.023621155 0.03960154 0.0074100173 -0.04187695 -0.1433967 -0.119529426 -0.06462486
0.1059246 0.057457104 0.18651247 0.0030139976 0.0019229761 0.13760184 0.08166645 -0.04913236
-0.025759133 0.10693129 -0.034058463 0.001274457 0.018558545 -0.11110994 0.059319995 -0.11159805
-0.08241713 0.006471495 0.053424496 0.029051688 0.009668043 -0.092049964 0.05444021 -0.028230708
0.12075183 0.13937707 -0.056811735 -0.04345265 -0.11148003 -0.057192724 -0.019247832 0.039866567
-0.059156228 0.08185509 0.23407808 -0.024399096 -0.032339435 -0.076292686 0.013785478 0.07085794
-0.066757604 0.04502241 0.014562782 0.0107182255 0.09991136 0.16075532 0.18160363 0.065181874
0.0642887 0.13623473 -0.18301813 -0.081349455 -0.08316607 -0.03463716 -0.027641978 0.019406429
-0.04550096 0.06833053 0.012365916 -0.025347855 -0.024403926 -0.07460366 -0.12700896 -0.12067863
-0.111866236 -0.03708115 -0.077002116 -0.04873487 0.09688384 0.085803024 0.09574238 -0.02358513
-0.079046585 -0.017857116 0.073824845 -0.023550056 -0.08877788 0.040513568 0.08387052 -0.0040538074
0.15143989 0.12822486 0.18150255 -0.0612109 0.052339647 -0.061761934 -0.20668063 -0.1628581
-0.21972457 -0.052202407 0.011351546 0.006043838 -0.06647483 0.032678384 -0.031945173 0.10116668
0.15371874 0.06745222 0.024361098 -0.0044632195 0.033107594 -0.04132162 0.04664402 -0.021029174
-0.026382776 -0.083087094 -0.107147224 -0.14746945 -0.13150732 -0.05056648 0.038781937 -0.030463448
0.034323763 0.036178116 0.08282169 0.10085264 -0.002858109 -0.11671311 -0.022146912 0.08448808
0.100707084 0.07025317 0.080467425 0.11720428 0.1626879 -0.1720364 -0.08407629 -0.007717304
-0.122437716 0.012491706 -0.06744708 -0.04037143 0.08335669 0.04039962 -0.062297616 -0.0062383325
-0.076053075 -0.14192273 0.013615424 -0.161791 -0.14362013 -0.09689603 -0.21283092 0.07191762
0.13093041 0.030757116 0.12220998 0.03173227 -0.050239615 0.06514995 0.11234601 0.12712756
0.013840124 -0.0668861 -0.0075478717 0.09187108 0.0056455177 0.06363563 -0.069639474 0.005338026
-0.007835207 -0.024822976 0.07407841 0.06227019 -0.054254428 -0.031150455 -0.0024353578 -0.04462286
0.000633685 -0.07747657 0.09777455 -0.04209869 0.12762608 0.05106163 0.023695115 -0.09201589
-0.025406223 -0.10079755 -0.038433213 0.096612595 0.08404041 -0.034512024 -0.023484414 -0.105637506
-0.053379975 0.11108172 0.11430115 0.15531538 -0.122383624 -0.052166574 -0.09885143 -0.049623813
00000000: 5682 42be d708 05be 6663 0cbe 58d5 6dbd
00000010: f972 d63d 7ef4 0c3e 5247 053c 74eb 263e
00000020: f2db 3639 6adc a2be 75fb 1cbe 069b 71be
00000030: 09a5 34be 0057 63be f12c 2cbd b082 dabd
00000040: b1d2 bcbc db02 f93c 1b4e 64be 343c 67be
00000050: add2 87bd 1657 55be 4342 6cbe 3fb6 8ebe
00000060: 4831 babd ebef 49be 6fbf bcbc 37cc 8b3e
00000070: 8249 3c3e 980a c93d 14c0 873d 20fe cb3d
00000080: 7441 913c d8dc 2abd 0e60 063d 9c2d ebbd
00000090: 5b8d f73d bd1f c73d 3154 8d3d 231f 373e
000000a0: 44a7 113e 26e1 583e f170 483d f813 233e
000000b0: 6396 103e ccbb 38be 83c3 58be 5fc9 31be
000000c0: a975 46be 248f 03be cfea 0fbe b0dc d6bd
000000d0: 6f8c b93d e70b 233e 027b df3c 3b77 2b3e
000000e0: e214 003e 2781 c13c 3935 223d bbcf f23b
000000f0: 2a87 2bbd 96d6 12be d8cb f4bd 0a5a 84bd
00000100: ffee d83d 2458 6b3d 20fd 3e3e 7d86 453b
00000110: 5f0c fc3a 7fe7 0c3e bd40 a73d 033f 49bd
00000120: d104 d3bc cbfe da3d e380 0bbd ae0b a73a
00000130: 1708 983c 9c8d e3bd 86f9 723d 858d e4bd
00000140: 50ca a8bd d60e d43b a5d3 5a3d cefd ed3c
00000150: b666 1e3c b184 bcbd b3fc 5e3d 1644 e7bc
00000160: bc4c f73d ddb8 0e3e 6cb3 68bd 68fb 31bd
00000170: a44f e4bd eb42 6abd a1ad 9dbc 204b 233d
00000180: cd4d 72bd a4a3 a73d 2ab2 6f3e 9de0 c7bc
00000190: 5b76 04bd 573f 9cbd 7cdc 613c f81d 913d
000001a0: 36b8 88bd 6b69 383d bc98 6e3c 7f9b 2f3c
000001b0: 549e cc3d 0b9d 243e 4df6 393e 137e 853d
000001c0: cba9 833d 1e81 0b3e 1b69 3bbe 8b9a a6bd
000001d0: f952 aabd b2df 0dbd 6e71 e2bc 3bfa 9e3c
000001e0: 375f 3abd e0f0 8b3d 699a 4a3c 4ea6 cfbc
000001f0: beea c7bc cec9 98bd a30e 02be 5c26 f7bd
00000200: 201a e5bd 67e2 17bd 49b3 9dbd 379e 47bd
00000210: 096b c63d 7fb9 af3d 9514 c43d 9a35 c1bc
00000220: 2de3 a1bd 1649 92bc 7b31 973d 0cec c0bc
00000230: 2dd1 b5bd 8ef1 253d 4fc4 ab3d cdd5 84bb
00000240: 0f13 1b3e 614d 033e cedb 393e 48b8 7abd
00000250: 1962 563d 15fa 7cbd 16a4 53be 46c4 26be
00000260: 7aff 60be 31d2 55bd d6fb 393c 630b c63b
00000270: f523 88bd c5d9 053d f1d8 02bd 7a30 cf3d
00000280: 7268 1d3e 6424 8a3d ed90 c73c 3340 92bb
00000290: d49b 073d dc40 29bd cd0d 3f3d 6045 acbc
000002a0: b120 d8bc 9129 aabd 0170 dbbd 3b02 17be
000002b0: dba9 06be cc1e 4fbd cfd9 1e3d 7b8e f9bc
000002c0: 1397 0c3d 812f 143d 6b9e a93d d48b ce3d
000002d0: 1d4f 3bbb 4807 efbd 716d b5bc 1608 ad3d
000002e0: 843f ce3d e5e0 8f3d 1bcc a43d cc08 f03d
000002f0: a897 263e 4f2a 30be 3130 acbd 70e1 fcbb
00000300: a0c0 fabd 03aa 4c3c b221 8abd 835c 25bd
00000310: eab6 aa3d 127a 253d c92b 7fbd ed6a ccbb
00000320: b7c1 9bbd 3154 11be 3a13 5f3c 8aac 25be
00000330: 2811 13be 6d71 c6bd 59f0 59be 8c49 933d
00000340: 9f12 063e 59f6 fb3c 3a49 fa3d b2f9 013d
00000350: 0ec8 4dbd 566d 853d aa15 e63d ba2d 023e
00000360: b0c1 623c 94fb 88bd 2354 f7bb e826 bc3d
00000370: 09fe b83b 6653 823d 249f 8ebd 9cea ae3b
00000380: 3d5f 00bc 8e59 cbbc 6cb6 973d 070f 7f3d
00000390: e439 5ebd 3d2f ffbc 869a 1fbb 76c6 36bd
000003a0: e11d 263a 09ac 9ebd 063e c83d ad6f 2cbd
000003b0: 69b0 023e 0026 513d 421c c23c d472 bcbd
000003c0: b620 d0bc f26e cebd 256c 1dbd d3dc c53d
000003d0: 611d ac3d 7b5c 0dbd 6362 c0bc 7a58 d8bd
000003e0: f6a4 5abd d07e e33d b916 ea3d ff0a 1f3e
000003f0: 44a4 fabd 9eac 55bd 9e72 cabd 5742 4bbd

bias f4 [16]
0.5421257 0.019901728 0.33326218 0.6459353 1.3198586 0.91559076 -0.0511313 0.72063446
0.67588717 0.04613929 0.27631366 0.66695195 0.18031365 0.069464974 0.85777485 1.7805189
00000000: c0c8 0a3f f308 a33c 57a1 aa3e 045c 253f
00000010: 20f1 a83f 2864 6a3f 0e6f 51bd 807b 383f
00000020: f106 2d3f 8dfc 3c3d fc78 8d3e 5dbd 2a3f
00000030: 24a4 383e a743 8e3d 2297 5b3f 0be8 e33f

weight f4 [32, 16, 9]
0.0016931666 -0.03752665 0.10666907 0.12743802 0.021681262 0.08814547 -0.053510178 0.102642424
0.04413812 0.085759945 -0.033465214 0.060445864 -0.056223713 -0.036974363 -0.038703684 0.047727615
0.1103664 0.08141229 0.06337456 0.04376908 0.13212915 0.04647032 0.019454096 0.06868873
0.11300291 0.009105213 0.083825886 0.08797675 0.09716965 -0.050862405 0.10747438 0.083340704
0.06842521 0.10915333 0.16829485 0.13079052 0.12574865 0.07819119 0.053282917 -0.07917891
-0.081837475 -0.023986734 -0.048512068 -0.11570392 -0.0797059 -0.024603358 -0.06636611 0.07880714
0.03187645 -0.024344755 0.0946869 0.027849551 0.038177237 0.065735966 0.037944634 0.07637177
0.07966966 -0.042245228 0.11275398 0.08637281 -0.0028520531 0.005102062 -0.021774156 -0.023979645
0.072776176 0.06399231 0.07247145 0.12171728 0.0991271 0.0004390896 0.10991777 0.17616831
0.08361932 -0.044305913 -0.103540115 -0.11407621 -0.08239704 0.039627224 0.021643024 0.11442459
0.14181954 -0.016365835 -0.03032018 -0.05447385 0.050943743 -0.042825013 0.097354695 0.062166803
0.10944804 0.110665105 -0.03676242 -0.011197348 0.04537804 -0.060233954 -0.094626784 0.029893242
-0.059368502 0.060079493 0.055609036 0.05634082 -0.022754924 -0.040775124 -0.045661617 -0.03257496
-0.014914965 0.06077503 0.0076688086 -0.082264215 -0.049758486 0.06749702 -0.055815645 0.035426576
-0.094305865 -0.036312707 0.05149623 0.016017523 -0.0060115545 0.08585827 -0.0048851767 0.054240063
0.09865663 0.003072024 -0.015970951 0.12890519 0.11852982 0.003504476 0.2194759 0.042409908
0.061592788 0.049585603 0.07124849 -0.04570482 -0.027600747 -0.11485894 -0.030539155 0.019991372
-0.037714437 -0.08891411 -0.03878084 0.023588087 -0.036448453 -0.10778272 0.02847643 0.0014687112
0.07622917 -0.014938032 -0.007494035 0.056635767 -0.12015709 -0.09728046 0.038369536 0.08995939
0.08655295 -0.043083444 -0.06910804 -0.0136089865 -0.084927745 -0.15760712 -0.10036486 0.032448366
0.15647848 0.15417233 0.119809076 0.06975378 0.025471658 0.041767955 0.14169899 -0.006935098
0.15000133 0.08497261 0.009660462 0.0020762254 -0.049876176 -0.13197422 -0.05792909 0.06844147
0.11932708 0.1704534 0.084591 0.086599626 0.18357503 0.047801558 -0.09113019 0.012223312
0.12877662 -0.05138759 -0.005251551 0.019130677 -0.09063931 0.028045887 0.019509403 0.086194225
0.012944635 -0.085327305 -0.049976144 0.011181135 0.13272911 0.058414694 0.035145614 0.045527827
0.1481823 -0.038410228 -0.0487258 -0.23937877 -0.111773364 0.019809978 0.114005245 -0.048571885
-0.27280086 -0.090593986 -0.081326626 -0.1432573 -0.1567937 -0.10962743 -0.004996071 -0.12253034
0.06363444 -0.014606762 -0.062420104 -0.030221378 -0.03663888 0.119433835 0.075800136 0.011405269
-0.10540831 0.0123355575 -0.013405255 -0.16501844 -0.09697806 -0.13754813 0.014536719 -0.06864003
-0.10163194 -0.104273744 0.29169154 0.11069302 0.16938315 0.15727615 0.1430284 0.060629897
0.17946337 0.053735346 0.06785037 0.10538831 -0.026626302 0.08133879 0.04428613 0.071389325
-0.029678987 0.05736004 0.022010257 -0.1644198 0.021292234 -0.23547812 -0.17242165 0.011544139
00000000: 3eed dd3a 8bb5 19bd 5075 da3d 1d7f 023e
00000010: e79c b13c 9d85 b43d 7d2d 5bbd 3136 d23d
00000020: 2cca 343d e9a2 af3d d212 09bd 1596 773d
00000030: d64a 66bd 6e72 17bd c187 1ebd 087e 433d
00000040: c707 e23d 7dbb a63d 85ca 813d 3547 333d
00000050: dd4c 073e aa57 3e3d 325e 9f3c adac 8c3d
00000060: 126e e73d 082e 153c e8ac ab3d 282d b43d
00000070: e200 c73d 1955 50bd 871b dc3d 88ae aa3d
00000080: 8422 8c3d c88b df3d 7c55 2c3e f3ed 053e
00000090: 41c4 003e b422 a03d 303f 5a3d 8d28 a2bd
000000a0: 689a a7bd d47f c4bc 97b4 46bd 2df6 ecbd
000000b0: d93c a3bd fb8c c9bc f5ea 87bd a365 a13d
000000c0: e190 023d a76e c7bc 35eb c13d be24 e43c
000000d0: bc5f 1c3d 94a0 863d d56b 1b3d cd68 9c3d
000000e0: d929 a33d 5509 2dbd 8feb e63d 3ae4 b03d
000000f0: 83e9 3abb 332f a73b b75f b2bc f670 c4bc
00000100: ad0b 953d 660e 833d e96b 943d e946 f93d
00000110: 2603 cb3d 9c35 e639 911c e13d 7765 343e
00000120: 9b40 ab3d 1e7a 35bd d70c d4bd caa0 e9bd
00000130: c8bf a8bd 2850 223d b64c b13c 7057 ea3d
00000140: 2439 113e a511 86bc 0762 f8bc f91f 5fbd
00000150: 63aa 503d 4869 2fbd e661 c73d 9ea2 7e3d
00000160: 4b26 e03d 63a4 e23d 3194 16bd 1575 37bc
00000170: 53de 393d e1b7 76bd b0cb c1bd ace2 f43c
00000180: 632c 73bd ea15 763d 4dc6 633d a2c5 663d
00000190: 8968 babc d103 27bd ad07 3bbd 526d 05bd
000001a0: e65d 74bc 3def 783d a14a fb3b 247a a8bd
000001b0: 8ecf 4bbd e13b 8a3d f29e 64bd 751b 113d
000001c0: 6f23 c1bd a2bc 14bd b6ed 523d 2e37 833c
000001d0: 93fc c4bb 76d6 af3d d513 a0bb d42a 5e3d
000001e0: 7d0c ca3d 0354 493b 83d5 82bc b9ff 033e
000001f0: c3bf f23d 5aab 653b 4abe 603e 03b6 2d3d
00000200: b848 7c3d 461a 4b3d baea 913d fa34 3bbd
00000210: f61a e2bc 2a3b ebbd 402d fabc f2c4 a33c
00000220: 747a 1abd 9a18 b6bd a8d8 1ebd ce3b c13c
00000230: f94a 15bd 30bd dcbd 6747 e93c c581 c03a
00000240: 0a1e 9c3d a6be 74bc 8690 f5bb e8fa 673d
00000250: ec14 f6bd fa3a c7bd 6029 1d3d a13c b83d
00000260: ac42 b13d 4478 30bd 8488 8dbd 3af8 5ebc
00000270: 99ee adbd c363 21be 178c cdbd 94e8 043d
00000280: e53b 203e 5adf 1d3e 765e f53d 12db 8e3d
00000290: f0a9 d03c e014 2b3d 8a19 113e d23f e3bb
000002a0: f399 193e 1f06 ae3d ea46 1e3c 4811 083b
000002b0: f64a 4cbd 4024 07be 0e47 6dbd 0b2b 8c3d
000002c0: c261 f43d 568b 2e3e 0c3e ad3d 255b b13d
000002d0: 18fb 3b3e 91cb 433d 77a2 babd 4944 483c
000002e0: 05de 033e cb7b 52bd 3415 acbb f0b7 9c3c
000002f0: 1aa1 b9bd 7dc0 e53c 2fd2 9f3c 9986 b03d
00000300: bc15 543c 15c0 aebd c9b3 4cbd 1431 373c
00000310: 24ea 073e 3f44 6f3d d9f4 0f3d 637b 3a3d
00000320: 1abd 173e 0b54 1dbd b494 47bd b51f 75be
00000330: 6fe9 e4bd 8948 a23c 957b e93d 50f3 46bd
00000340: 8eac 8bbe 5789 b9bd 938e a6bd 0bb2 12be
00000350: 878e 20be 5984 e0bd 15b6 a3bb 30f1 fabd
00000360: c652 823d 3351 6fbc 39ac 7fbd d392 f7bc
00000370: a612 16bd ba99 f43d 1a3d 9b3d 2add 3a3c
00000380: 50e0 d7bd 141b 4a3c b7a1 5bbc 98fa 28be
00000390: 6f9c c6bd 6bd9 0cbe 6b2b 6e3c 2593 8cbd
000003a0: 6824 d0bd 798d d5bd 9858 953e 06b3 e23d
000003b0: c772 2d3e 000d 213e 0976 123e 0e57 783d
000003c0: 3fc5 373e 9819 5c3d 23f5 8a3d d4d5 d73d
000003d0: 671f dabc f494 a63d 6065 353d 9134 923d
000003e0: 5921 f3bc 5cf2 6a3d db4e b43c aa5d 28be
000003f0: 0d6d ae3c 2d21 71be 4d8f 30be a123 3d3c

bias f4 [32]
0.13845716 0.27217263 0.23189434 0.028418014 0.85599434 0.17786685 0.8354982 0.12817675
0.12926888 0.7819696 0.107811235 0.48950595 0.047589093 0.629132 0.5111116 0.39344576
0.48007086 0.18017754 0.15366186 0.25304988 0.12993841 0.07790428 0.5801634 0.45077094
0.09135024 0.39767164 0.20140184 0.3890191 0.18081345 0.33300135 0.2018821 0.2331245
00000000: b7c7 0d3e 365a 8b3e b675 6d3e e5cc e83c
00000010: 7222 5b3f ba22 363e 36e3 553f c440 033e
00000020: 105f 043e 292f 483f 23cc dc3d 86a0 fa3e
00000030: c8ec 423d cb0e 213f 36d8 023f b971 c93e
00000040: d9cb f53e 7680 383e 8959 1d3e c18f 813e
00000050: 930e 053e 478c 9f3d 9785 143f 73cb e63e
00000060: d615 bb3d 9e9b cb3e 493c 4e3e 832d c73e
00000070: 2927 393e 277f aa3e 2eba 4e3e 30b8 6e3e

weight f4 [64, 32, 9]
0.0363019 0.037259087 0.046474773 0.10904215 0.053408533 0.080255866 0.04722993 0.093903944
0.060748003 0.079523556 0.032917842 -0.06563433 0.092528924 -0.09234355 -0.087247215 0.032072973
0.006573141 -0.08319043 -0.0071888217 0.00444258 0.03798629 0.030274045 0.063396335 0.04375738
0.072425045 0.026575299 0.03643818 0.024496593 0.05772636 -0.05208643 0.027439643 0.09373696
0.10259213 0.06758398 0.086051 0.0048911716 -0.0021142294 -0.09028696 0.104827955 0.079163305
-0.2211019 -0.017402764 0.037405316 -0.106794745 -0.022894038 0.045945253 -0.00030595317 0.02293505
0.045251947 0.070229955 0.08150519 0.039374717 -0.0060434933 0.08614758 -0.0017284061 0.15040101
0.100778766 -0.045534328 0.04479051 0.16322766 0.12682238 -0.10900128 0.10558746 -0.03459608
-0.0010168422 -0.06911677 -0.018201718 0.015293944 -0.07836412 -0.058471724 0.022953562 -0.02202657
0.011001379 0.0460463 -0.037464123 -0.018071743 0.059897467 0.00812418 0.040742535 0.0484567
-0.07182855 -0.019215854 -0.061693136 0.01244132 -0.11454464 0.06829516 0.093244545 -0.020200346
-0.10747411 0.1296542 0.0027384236 0.12400997 0.061305963 0.030497128 0.0582173 0.11337445
0.09879488 0.09163308 0.025772894 0.017936153 0.032999843 0.10844224 0.06903955 -0.026945105
0.10168835 0.08887197 0.0035918155 0.07934466 -0.08044535 0.02452128 -0.03845377 0.032471437
0.06448321 0.032893162 -0.030280577 0.079672724 0.040184774 0.011891144 -0.08564283 -0.01229354
-0.089099236 -0.0054990067 0.06333678 -0.050947424 -0.045967314 -0.047779217 0.0026318831 -0.05260058
-0.0615354 0.07929114 -0.027391592 0.04588352 -0.07499323 -0.059255425 0.018150091 0.0057933615
-0.010496662 0.114863 0.16573595 0.0428847 0.082347095 -0.09278361 0.009398726 -0.006481717
0.03500188 -0.024177784 -0.048416346 -0.05623229 -0.035109747 -0.17570238 -0.11224419 -0.18647279
-0.035328325 -0.07489486 -0.06181904 -0.12750477 -0.22019354 -0.25534385 -0.16450943 -0.10229125
-0.22227566 -0.02994844 -0.034264002 -0.006483836 -0.039951406 0.03038232 -0.0055650137 0.020892289
-0.041443303 0.018077914 0.06279843 0.03608718 0.06890446 -0.07211888 -0.070585154 -0.04204348
0.10714538 -0.041708764 0.033009667 -0.08616804 0.022942472 0.12764367 -0.022641044 -0.07958756
0.069451824 0.038040154 -0.07154997 -0.0030836458 0.04536354 -0.016073862 -0.009867116 0.034297477
-0.007229799 0.041965485 0.0057292003 0.027726797 0.023631778 -0.014244506 -0.0074773114 0.11401485
-0.03705215 0.057386987 0.110267326 0.023502126 0.09812953 -0.007230038 0.011255668 0.02150951
0.08325797 0.048935268 0.077874474 0.12629533 0.10631289 -0.0119926 0.012997269 0.00089861813
0.06610146 0.025159186 0.080598764 0.11627067 0.03581691 0.023320263 0.0536169 -0.011157186
0.0060012885 -0.0075778393 0.0055317925 -0.069801725 0.12293275 -0.077696554 0.0958593 0.03458267
0.00183002 0.10589554 0.024339912 -0.05262771 -0.04842659 -0.007556405 0.05375791 -0.039691154
-0.016174523 0.0022154748 0.0029688585 -0.032975115 0.031577762 0.0781579 -0.0017115882 0.046723932
0.0040158927 0.041095145 0.08377486 0.059810277 -0.02942039 0.120167375 -0.18223774 -0.021943823
00000000: 4db1 143d fc9c 183d 555c 3e3d 7e51 df3d
00000010: e8c2 5a3d 305d a43d 2c74 413d b650 c03d
00000020: e6d2 783d 3fdd a23d dcd4 063d 4b6b 86bd
00000030: ce7f bd3d 9d1e bdbd abae b2bd f35e 033d
00000040: 8163 d73b bf5f aabd 3590 ebbb 1093 913b
00000050: 8397 1b3d 4601 f83c f0d5 813d f03a 333d
00000060: 9553 943d 71b4 d93c 3340 153d 14ad c83c
00000070: 7a72 6c3d 9558 55bd 1ac9 e03c 2af9 bf3d
00000080: d31b d23d 7869 8a3d 823b b03d 1f46 a03b
00000090: e28e 0abb 5fe8 b8bd 0ab0 d63d 5f20 a23d
000000a0: 8968 62be 3e90 8ebc 5136 193d 34b7 dabd
000000b0: 478c bbbc 1731 3c3d 5768 a0b9 49e2 bb3c
000000c0: 1b5a 393d b9d4 8f3d 31ec a63d 6247 213d
000000d0: 7f08 c6bb 246e b03d af8b e2ba b902 1a3e
000000e0: 1965 ce3d 3482 3abd 4176 373d 2725 273e
000000f0: badd 013e 103c dfbd 3d3e d83d 9fb4 0dbd
00000100: 9047 85ba 188d 8dbd c51b 95bc 7393 7a3c
00000110: 5e7d a0bd 0c80 6fbd 1c09 bc3c 1171 b4bc
00000120: 213f 343c 0c9b 3c3d fb73 19bd 310b 94bc
00000130: 0c57 753d 481b 053c a5e1 263d 887a 463d
00000140: d91a 93bd 916a 9dbc f1b1 7cbd aed6 4b3c
00000150: 6196 eabd 55de 8b3d fff6 be3d 327b a5bc
00000160: 631b dcbd 12c4 043e 2077 333b f0f8 fd3d
00000170: f61b 7b3d 1dd5 f93c 4375 6e3d dd30 e83d
00000180: f854 ca3d 20aa bb3d ad21 d33c d7ee 923c
00000190: d82a 073d f716 de3d 9c64 8d3d fbbb dcbc
000001a0: fb41 d03d 8202 b63d aa64 6b3b 747f a23d
000001b0: 88c0 a4bd dae0 c83c b381 1dbd c500 053d
000001c0: c60f 843d fbba 063d f90e f8bc 742b a33d
000001d0: ca98 243d 13d3 423c 8265 afbd d86a 49bc
000001e0: a979 b6bd 0331 b4bb b7b6 813d 3fae 50bd
000001f0: 3948 3cbd 24b4 43bd ac7b 2c3b b573 57bd
00000200: 8b0c 7cbd 6563 a23d 5564 e0bc 5cf0 3b3d
00000210: 0d96 99bd d1b5 72bd 80af 943c 3dd6 bd3b
00000220: 31fa 2bbc 4b3d eb3d afb6 293e dea7 2f3d
00000230: 98a5 a83d 5505 bebd 1dfd 193c 9564 d4bb
00000240: 225e 0f3d 7d10 c6bc 3850 46bd d453 66bd
00000250: 3dcf 0fbd 53eb 33be 48e0 e5bd b9f2 3ebe
00000260: 6fb4 10bd 7a62 99bd f635 7dbd 9c90 02be
00000270: 6a7a 61be 6ebc 82be 2975 28be 137e d1bd
00000280: 3b9c 63be 6e56 f5bc 6958 0cbd 5c76 d4bb
00000290: 16a4 23bd 58e4 f83c b85a b6bb 4e26 ab3c
000002a0: 74c0 29bd 2218 943c 779c 803d 27d0 133d
000002b0: c81d 8d3d 10b3 93bd f38e 90bd c935 2cbd
000002c0: 096f db3d cfd6 2abd 2535 073d df78 b0bd
000002d0: daf1 bb3c 06b5 023e b679 b9bc cdfe a2bd
000002e0: c23c 8e3d fecf 1b3d ca88 92bd fe16 4abb
000002f0: 1fcf 393d 55ad 83bc afa9 21bc 837b 0c3d
00000300: f3e7 ecbb 00e4 2b3d 04bc bb3b 4f23 e33c
00000310: 6e97 c13c ca61 69bc 3c04 f5bb 9e80 e93d
00000320: ffc3 17bd 9e0e 6b3d d6d3 e13d 8887 c03c
00000330: 23f8 c83d f4e9 ecbb b169 383c b634 b03c
00000340: 2883 aa3d 5970 483d a77c 9f3d 9053 013e
00000350: 93ba d93d 9c7c 44bc 7ff2 543c 3e91 6b3a
00000360: 3460 873d a31a ce3c f710 a53d 511f ee3d
00000370: c1b4 123d 230a bf3c 659d 5b3d a1cc 36bc
00000380: 75a6 c43b 864f f8bb 0a44 b53b 35f4 8ebd
00000390: 2ac4 fb3d 5f1f 9fbd e151 c43d 8fa6 0d3d
000003a0: 48dd ef3a c3df d83d 7f64 c73c 2790 57bd
000003b0: f65a 46bd b89b f7bb 4131 5c3d 3193 22bd
000003c0: 6f80 84bc 8031 113b 2e91 423b ea10 07bd
000003d0: af57 013d 4011 a03d 5f57 e0ba 9861 3f3d
000003e0: c097 833b 6253 283d 2792 ab3d 9ffb 743d
000003f0: 0803 f1bc 501a f63d 889c 3abe 88c3 b3bc

bias f4 [64]
0.06649733 0.19620956 0.1573237 0.29046258 0.062365238 0.54282016 0.14090472 -0.18104649
0.05321229 -0.0028824941 0.3206156 -0.14940488 0.38511762 0.02719295 0.1826556 0.3800845
0.1273254 0.16449262 -0.070701726 -0.11488562 0.48475537 -0.06805247 0.21296582 -0.19758101
0.1400603 -0.002497393 0.20242164 -0.5192172 0.19707082 0.12379166 0.26247013 0.030609984
-0.068241134 -0.060611412 0.23130783 -0.055468414 0.4338468 0.1762187 0.21341786 0.19370252
-0.08939778 -0.032411993 0.4433873 -0.06284191 0.45951128 0.21410732 0.07007939 0.41430438
0.15736003 0.23786995 0.15770036 0.4112306 0.07679202 -0.07443417 0.11369162 0.20745893
0.6058845 0.32779536 0.06209802 -0.1298772 -0.059281826 0.43014345 0.13891909 0.35011172
00000000: c12f 883d 29eb 483e 7719 213e 83b7 943e
00000010: b172 7f3d 43f6 0a3f 5449 103e 4064 39be
00000020: 21f5 593d 3ae8 3cbb ba27 a43e 98fd 18be
00000030: 232e c53e c0c3 de3c 120a 3b3e 709a c23e
00000040: 9761 023e c170 283e 11cc 90bd 2749 ebbd
00000050: db31 f83e 185f 8bbd b613 5a3e ad52 4abe
00000060: f86b 0f3e 4dab 23bb 9e47 4f3e 6beb 04bf
00000070: efcc 493e 7b86 fd3d 7c62 863e cac1 fa3c
00000080: 02c2 8bbd ac43 78bd f6db 6c3e d932 63bd
00000090: 2b21 de3e ad72 343e 368a 5a3e f459 463e
000000a0: 2f16 b7bd 70c2 04bd a903 e33e 42b3 80bd
000000b0: 1045 eb3e f33e 5b3e c985 8f3d b41f d43e
000000c0: fd22 213e 2e94 733e 347c 213e d18c d23e
000000d0: 2245 9d3d f170 98bd 27d7 e83d 1d70 543e
000000e0: 3f1b 1b3f cbd4 a73e 7e5a 7e3d 87fe 04be
000000f0: 80d1 72bd c33b dc3e ce40 0e3e d841 b33e

weight f4 [64, 32, 9]
0.01161849 0.027624507 0.0012897907 -0.10757438 0.0784738 -0.027606916 -0.026551412 0.080026224
0.08502267 0.10435922 0.11769216 0.14337458 -0.039551385 0.197107 0.15947609 -0.054323386
0.10039468 0.0075144856 -0.10526704 -0.048061736 0.08764277 0.019564755 0.041539893 0.012954673
0.10856477 -0.05095204 0.04164671 -0.10578642 -0.062174723 0.005734199 -0.04380015 0.0601788
0.05811417 -0.019984381 -0.035395622 -0.23939303 0.014525695 0.041124377 -0.016750546 0.061861996
-0.026322423 -0.057007514 -0.07263354 0.041780446 0.050837047 0.051793028 0.16101877 0.016974648
-0.10705042 0.05438286 0.050711617 -0.002718282 -0.012293812 0.04845872 -0.04372 0.12488186
-0.033270672 -0.050659023 -0.039275352 -0.06104699 -0.0116368625 -0.12877484 -0.026307533 0.13392948
0.07502728 -0.0065989816 -0.016757663 0.06315473 -0.06803667 -0.15146461 0.09608042 0.05328883
0.03159578 0.022191675 -0.039443616 0.15243354 -0.03928167 0.034190957 -0.057607267 0.0047367853
0.037313793 -0.01707425 -0.022453897 0.0450382 0.027093597 0.008726143 0.016810529 -0.033895593
0.040095724 0.046049096 -0.03715455 0.08514205 0.13302225 0.05784359 0.060665898 0.13912565
0.12644503 -0.22984691 -0.01404441 -0.006755937 -0.03195974 -0.16912709 -0.16998163 -0.07021574
0.007355753 -0.10169365 0.009967376 -0.2335438 -0.004394238 -0.02655764 -0.021801138 0.07418506
0.01468261 0.029630171 0.020698601 0.08860213 -0.0006614935 0.014736886 0.07586099 0.0568279
0.08389079 0.18374223 0.12970196 0.09638188 0.13430683 0.06128732 0.046851154 0.02269707
-0.12583327 0.04702303 0.079716526 -0.046717796 -0.040078674 -0.0055787535 0.019992892 0.011956875
0.12562895 -0.029768301 -0.0062035294 -0.029327359 -0.11828136 -0.0074957777 -0.047519896 -0.2102498
0.03812248 -0.039573092 -0.051426485 0.07377149 0.021972904 0.009347319 -0.017566422 0.03777017
-0.02123634 0.020682601 0.00060104823 0.0463131 -0.0154674845 0.08022536 0.056257177 0.0024273444
0.042284016 -0.009508949 -0.005693592 0.07200632 0.04865598 -0.0047246134 0.016787607 0.08014078
-0.00849261 0.11066551 -0.009943035 -0.015954498 -0.01496871 -0.04474727 0.05052653 0.1030439
0.02331842 0.026965572 -0.09111984 0.046735805 0.036696427 -0.030147156 -0.010421983 0.045196418
-0.039118525 -0.050139625 -0.13920093 -0.010977505 -0.037586164 -0.0467334 -0.10130035 0.094774365
-0.08749045 -0.025931343 -0.028969098 -0.03246854 -0.20198351 0.018433835 -0.01545106 -0.042254023
-0.0325848 -0.14798081 0.039559465 0.0064645642 -0.17640457 -0.097000636 0.14832641 -0.103320815
0.03426844 -0.04879258 -0.058244377 -0.016450351 -0.0337132 -0.031203358 -0.100394994 -0.016322508
-0.0569365 -0.0067351093 -0.11040151 0.0058333846 0.014831184 0.017572418 -0.026331188 -0.06249955
-0.29383484 -0.026889024 0.0021996233 -0.05385004 -0.069523826 -0.11739319 -0.015152816 -0.080350526
0.037032686 -0.049629685 0.0070635932 0.09140998 -0.051818497 0.08344813 0.123245455 -0.057226997
0.000781645 0.16549997 -0.08165944 0.06009689 -0.20547755 0.030723654 0.005604578 0.011540413
0.078129075 0.053564936 0.100050166 -0.037511487 0.017117435 -0.00065901305 0.06402334 0.021622935
00000000: 7b5b 3e3c ca4c e23c 320e a93a f54f dcbd
00000010: dfb6 a03d e627 e2bc 5982 d9bc cae4 a33d
00000020: 5e20 ae3d 49ba d53d 9608 f13d c9d0 123e
00000030: a200 22bd 6bd6 493e b34d 233e 3382 5ebd
00000040: ba9b cd3d 133c f63b 3f96 d7bd 62dc 44bd
00000050: 0d7e b33d 4446 a03c bc25 2a3d d63f 543c
00000060: 3557 de3d 16b3 50bd be95 2a3d 8da6 d8bd
00000070: ecaa 7ebd f3e5 bb3b c967 33bd 0c7e 763d
00000080: 2009 6e3d 49b6 a3bc 00fb 10bd 7223 75be
00000090: 2efd 6d3c 0972 283d 7138 89bc 0163 7d3d
000000a0: 1fa2 d7bc b680 69bd e5c0 94bd f921 2b3d
000000b0: 823a 503d ed24 543d 1be2 243e 6b0e 8b3c
000000c0: 403d dbbd 90c0 5e3d fcb6 4f3d 3425 32bb
000000d0: fc6b 49bc a77c 463d be13 33bd 10c2 ff3d
000000e0: d446 08bd d67f 4fbd 31df 20bd 690c 7abd
000000f0: 8aa8 3ebc 8ddd 03be e582 d7bc cf24 093e
00000100: e7a7 993d 453c d8bb 5e47 89bc 4457 813d
00000110: cf56 8bbd 8a19 1bbe d0c5 c43d 6345 5a3d
00000120: 946a 013d 51cb b53c a18f 21bd 8a17 1c3e
00000130: d1e5 20bd d10b 0c3d 99f5 6bbd 0937 9b3b
00000140: 59d6 183d 4cdf 8bbc 3cf1 b7bc fa79 383d
00000150: 64f3 dd3c 19f8 0e3c 3cb6 893c 1bd6 0abd
00000160: 6a3b 243d fa9d 3c3d 5f2f 18bd f55e ae3d
00000170: fc36 083e 66ed 6c3d ce7c 783d f476 0e3e
00000180: ce7a 013e fd5c 6bbe 861a 66bc e860 ddbb
00000190: 37e8 02bd a72f 2dbe aa0f 2ebe 45cd 8fbd
000001a0: 8708 f13b c344 d0bd 344e 233c 1b26 6fbe
000001b0: 8afd 8fbb 688f d9bc 4d98 b2bc 56ee 973d
000001c0: 548f 703c f9ba f23c 1d90 a93c 0975 b53d
000001d0: 1468 2dba fb72 713c 025d 9b3d 5fc4 683d
000001e0: efce ab3d ec26 3c3e 97d0 043e dd63 c53d
000001f0: bb87 093e 6a08 7b3d ffe6 3f3d 35ef b93c
00000200: 70da 00be 399b 403d 6b42 a33d 295b 3fbd
00000210: 8929 24bd facd b6bb 22c8 a33c c5e6 433c
00000220: e0a4 003e a7dc f3bc fa46 cbbb ee3f f0bc
00000230: 7f3d f2bd 249f f5bb 39a4 42bd b94b 57be
00000240: 5126 1c3d 6517 22bd 94a4 52bd 8215 973d
00000250: 8500 b43c 7f25 193c 75e7 8fbc e5b4 1a3d
00000260: d5f7 adbc 8f6e a93c aa8f 1d3a ceb2 3d3d
00000270: 556b 7dbc 324d a43d ed6d 663d 1514 1f3b
00000280: 0132 2d3d 6ccb 1bbc 5091 babb 0d78 933d
00000290: 7e4b 473d eed0 9abb 2a86 893c d920 a43d
000002a0: 9724 0bbc 99a4 e23d 1de8 22bc 02b3 82bc
000002b0: 523f 75bc ea48 37bd e8f4 4e3d ae08 d33d
000002c0: 4506 bf3c e7e6 dc3c 0a9d babd 0b6e 3f3d
000002d0: fe4e 163d 2bf7 f6bc f7c0 2abc e11f 393d
000002e0: bf3a 20bd 355f 4dbd b08a 0ebe feda 33bc
000002f0: f3f3 19bd 866b 3fbd 8f76 cfbd 1019 c23d
00000300: 312e b3bd f86d d4bc 9a50 edbc bbfd 04bd
00000310: c4d4 4ebe 8e02 973c 7126 7dbc 8e12 2dbd
00000320: a477 05bd 4888 17be 1b09 223d b2d4 d33b
00000330: 66a3 34be 45a8 c6bd e1e2 173e dd99 d3bd
00000340: 105d 0c3d bada 47bd a891 6ebd e3c2 86bc
00000350: da16 0abd 2f9e ffbc e49b cdbd c8b6 85bc
00000360: 3f36 69bd 31b2 dcbb 301a e2bd fa25 bf3b
00000370: 7ffe 723c 08f4 8f3c 81b4 d7bc 87ff 7fbd
00000380: 8571 96be 5f46 dcbc 8e27 103b dc91 5cbd
00000390: 8262 8ebd d76b f0bd 8443 78bc d18e a4bd
000003a0: 96af 173d 7f48 4bbd b775 e73b 2835 bb3d
000003b0: a23f 54bd dae6 aa3d 1d68 fc3d db66 6abd
000003c0: 4fe7 4c3a d378 293e 113d a7bd 2828 763d
000003d0: b568 52be 2cb0 fb3c 9ca6 b73b 0014 3d3c
000003e0: 2302 a03d e866 5b3d 1ae7 cc3d a5a5 19bd
000003f0: dd39 8c3c 9ec1 2cba ab1e 833d 9522 b13c

bias f4 [32]
-0.16150066 0.17811614 0.19200452 0.24576195 -0.18142353 0.28928843 0.115217626 -0.17810942
0.22692968 0.015435625 -0.018262664 0.031911246 -0.36941972 -0.053173292 -0.14200388 -0.08808
-0.19771895 0.21197584 0.05613248 0.13351002 -0.21832612 0.45334873 0.10646244 0.27358067
0.20074736 -0.07437911 -0.1411226 0.060931943 -0.016391322 -0.06383215 -0.10361953 0.35782275
00000000: 6e60 25be 1464 363e d59c 443e 05a9 7b3e
00000010: 17c7 39be 9d1d 943e 38f7 eb3d 5162 36be
00000020: 4160 683e b4e5 7c3c 959b 95bc 5eb5 023d
00000030: 9524 bdbe 3dcc 59bd 7769 11be 4963 b4bd
00000040: d676 4abe 3210 593e 2ceb 653d dab6 083e
00000050: e290 5fbe 531d e83e fb08 da3d c412 8c3e
00000060: b790 4d3e 1354 98bd 7182 10be c693 793d
00000070: 1847 86bc 6eba 82bd 7a36 d4bd 8b34 b73e

weight f4 [32, 16, 9]
0.037798155 0.02736471 0.048043095 0.008968525 0.025172835 0.0202223 0.054387365 -0.0146466615
0.06571841 0.026049187 0.021747086 0.046027876 -0.012384129 -0.08035307 0.0978401 0.002068695
0.06182548 0.116034806 0.08727283 0.086394645 0.10886338 0.10560061 0.123529784 0.09479883
0.11209719 0.0952154 0.10873691 0.2556237 0.07502821 0.33961946 0.010233125 -0.00999535
-0.19819243 0.01884502 -0.24619134 -0.11911413 -0.014694368 0.025343675 0.038106073 0.025882818
0.006257838 0.00718443 0.032795805 -0.00013083259 0.058362797 0.08837322 0.024772262 -0.00786911
0.057743113 0.03076696 0.044043794 0.019299531 0.008948036 0.15173477 0.011020467 0.11938194
-0.046628956 -0.06685336 -0.087531224 -0.050540384 -0.14516969 -0.0022135072 0.028583879 0.022115903
0.02109193 0.042807378 0.016980749 -0.030504923 0.0136155635 -0.03720507 0.049512837 0.06300151
-0.021023516 -0.04172606 -0.030186035 0.0010776691 -0.07921849 -0.051362462 -0.02516746 -0.00011660331
0.0043263 0.080120556 -0.0039051333 0.21184206 0.097017 -0.057296887 0.010611233 -0.0046255384
-0.022032551 0.08611972 0.06455473 0.10934765 0.07345897 0.096063785 0.1346465 0.04401755
0.13982782 0.03260964 0.18022436 0.0074412716 0.100937545 0.0022038303 0.06371016 -0.03465062
0.005638089 -0.0224967 0.0323153 0.006938558 -0.02677752 -0.035597846 0.04810384 0.0074408376
-0.0432687 -0.032925453 0.011959136 -0.0012005046 0.06527659 -0.021663152 0.09078476 -0.058162898
0.09866122 -0.11853332 0.06289302 0.100675076 -0.032920644 0.039780814 0.057686023 0.08522748
0.0024954288 0.07481859 0.007620609 0.017846266 0.05152186 -0.024162551 0.10971805 -0.08631303
-0.040579088 0.021474557 -0.36023155 -0.06005045 -0.027562814 -0.055647533 -0.051031664 -0.102366686
0.06210551 0.032506883 -0.0045428947 -0.016880663 0.0020662653 -0.029100347 0.06266583 0.057309423
0.022786085 -0.10900609 -0.3183513 -0.05540682 -0.12830119 0.03307442 0.040103316 0.09163353
0.2177605 -0.13336353 -0.07227749 -0.044889744 -0.01051109 0.03615411 0.04183204 0.063474834
0.010330075 -0.04554655 -0.042672843 -0.08092605 0.051115673 0.008732105 -0.026021356 -0.00086515385
-0.35330862 0.087199345 -0.06842898 -0.005628716 -0.22254772 -0.23558253 -0.14934045 -0.048630696
0.00090153626 0.011971036 0.101052165 0.10905792 0.033229593 0.080159456 -0.08899582 0.042765316
0.11149276 -0.023465598 0.06468875 -0.07916408 -0.15110604 -0.1931475 0.074124515 0.08972577
0.11355131 0.12028946 0.10703869 0.12486465 0.12600859 0.09227076 0.09007466 -0.0117760105
0.05751953 -0.06679565 0.04481684 -0.020207783 0.0772385 0.10921084 0.07588965 0.086766765
0.040692046 0.11792496 0.13831608 0.15276596 0.1486496 0.106553145 0.13892701 0.073463075
0.018362388 0.0982914 -0.18085101 -0.14629558 -0.11158696 -0.052449018 0.1891723 0.17397228
-0.08592822 -0.32677636 0.037805066 0.17499252 0.051492702 0.07805102 0.06575028 0.10261718
0.021365544 0.071207955 0.05704226 0.016974963 0.06574268 0.0046915016 0.065748625 0.11416622
0.09577133 0.06721794 0.045675848 0.034754395 -0.15565735 0.03498182 -0.26373082 -0.19507329
00000000: 3dd2 1a3d f52b e03c d6c8 443d b8f0 123c
00000010: 4337 ce3c 3da9 a53c 49c5 5e3d 8df8 6fbc
00000020: 6097 863d 1b65 d53c f226 b23c ba87 3c3d
00000030: cde6 4abc 2690 a4bd 6460 c83d f192 073b
00000040: b73c 7d3d a8a3 ed3d 19bc b23d adef b03d
00000050: c4f3 de3d 2245 d83d 2ffd fc3d e425 c23d
00000060: 3693 e53d 4b00 c33d 75b1 de3d 1ce1 823e
00000070: 64a8 993d 9ae2 ad3e d6a8 273c 89c3 23bc
00000080: f5f2 4abe df60 9a3c 9519 7cbe 1cf2 f3bd
00000090: a5c0 70bc 8a9d cf3c 1d15 1c3d 3408 d43c
000000a0: 8d0e cd3b 5e6b eb3b e554 063d 1b30 09b9
000000b0: d40d 6f3d 05fd b43d 33ef ca3c 71ed 00bc
000000c0: 0b84 6c3d fe0a fc3c 4467 343d 0d1a 9e3c
000000d0: c89a 123c 5c60 1b3e 308f 343c 857e f43d
000000e0: 01fe 3ebd 6aea 88bd 9243 b3bd 6f03 4fbd
000000f0: 5da7 14be 7d10 11bb bd28 ea3c 692c b53c
00000100: fcc8 ac3c ca56 2f3d 361b 8b3c 76e5 f9bc
00000110: d013 5f3c 5864 18bd f9cd 4a3d f006 813d
00000120: 8239 acbc f2e8 2abd b448 f7bc 9340 8d3a
00000130: 4e3d a2bd 7261 52bd fd2b cebc ed88 f4b8
00000140: a3c3 8d3b 3f16 a43d 44ed 7fbb 20ed 583e
00000150: d9b0 c63d 24b0 6abd bdda 2d3c d491 97bb
00000160: 9c7d b4bc 895f b03d 4535 843d a9f1 df3d
00000170: a871 963d 17bd c43d c6e0 093e bf4b 343d
00000180: 062f 0f3e b091 053d bc8c 383e e9d5 f33b
00000190: 58b8 ce3d 236e 103b 797a 823d cfed 0dbd
000001a0: b8bf b83b 004b b8bc 0c5d 043d d85c e33b
000001b0: 885c dbbc 0ccf 11bd 8808 453d 45d2 f33b
000001c0: 853a 31bd d7dc 06bd 41f0 433c 405a 9dba
000001d0: bcaf 853d ec76 b1bc 5ced b93d 383c 6ebd
000001e0: e50e ca3d 99c1 f2bd 0ece 803d bc2e ce3d
000001f0: ccd7 06bd 35f1 223d 2e48 6c3d bf8b ae3d
00000200: 598a 233b 7d3a 993d 4db6 f93b 5532 923c
00000210: 9608 533d 8bf0 c5bc dbb3 e03d e3c4 b0bd
00000220: 4236 26bd 69eb af3c 4570 b8be 76f7 75bd
00000230: 69cb e1bc abee 63bd 9406 51bd a0a5 d1bd
00000240: 5962 7e3d f025 053d 90dc 94bb 5149 8abc
00000250: 2e6a 073b da63 eebc f156 803d 49bd 6a3d
00000260: e2a9 ba3c 963e dfbd f1fe a2be 43f2 62bd
00000270: 6361 03be 0b79 073d 6043 243d 5caa bb3d
00000280: 9cfc 5e3e 7390 08be 3806 94bd 4fde 37bd
00000290: b536 2cbc 5516 143d 1358 2b3d 18ff 813d
000002a0: 7a3f 293c 058f 3abd b8c9 2ebd 8fbc a5bd
000002b0: ab5e 513d 1a11 0f3c bd2a d5bc 7ecb 62ba
000002c0: dee4 b4be 9295 b23d 7e24 8cbd 1871 b8bb
000002d0: 8de3 63be 8c3c 71be b4ec 18be fb30 47bd
000002e0: 1355 6c3a 2a22 443c 70f4 ce3d c259 df3d
000002f0: c11b 083d a42a a43d 7143 b6bd af2a 2f3d
00000300: 5156 e43d ed3a c0bc 897b 843d c720 a2bd
00000310: 8bbb 1abe 75c8 45be 98ce 973d 25c2 b73d
00000320: 978d e83d 525a f63d 1a37 db3d 0ab9 ff3d
00000330: 6508 013e 74f8 bc3d 1079 b83d 2bf0 40bc
00000340: 9999 6b3d 28cc 88bd dd91 373d cb8a a5bc
00000350: 382f 9e3d efa9 df3d 086c 9b3d c6b2 b13d
00000360: b4ac 263d a482 f13d bba2 0d3e ae6e 1c3e
00000370: 9a37 183e 8938 da3d e242 0e3e cf73 963d
00000380: b86c 963c 004d c93d 0231 39be 82ce 15be
00000390: b487 e4bd c8d4 56bd 62b6 413e ca25 323e
000003a0: 22fb afbd 3b4f a7be 7cd9 1a3d 3d31 333e
000003b0: 03ea 523d 37d9 9f3d 15a8 863d f528 d23d
000003c0: cb06 af3c 7ad5 913d 25a5 693d 140f 8b3c
000003d0: 19a4 863d 2bbb 993b 37a7 863d fbcf e93d
000003e0: c223 c43d 8fa9 893d 9916 3b3d a05a 0e3d
000003f0: a464 1fbe 1949 0f3d ba07 87be 4bc1 47be

bias f4 [16]
-0.07624088 -0.28298402 -0.26872182 -0.29747954 0.24531992 -0.40194222 0.27501535 -0.06040913
-0.22332744 -0.11770834 -0.19254819 -0.28578588 0.24729635 -0.03285015 -0.019501701 -0.10214989
00000000: 2e24 9cbd 48e3 90be e895 89be 3d4f 98be
00000010: 2535 7b3e 5fcb cdbe d0ce 8c3e 906f 77bd
00000020: f3af 64be 1211 f1bd 5a2b 45be 8752 92be
00000030: 413b 7d3e e18d 06bd 08c2 9fbc f633 d1bd

weight f4 [16, 12, 9]
-0.007578961 -0.03653249 -0.0483921 0.015492581 -0.056338415 -0.081263505 0.016581656 -0.14153951
-0.042580526 0.12271378 0.011777238 0.14094181 0.09394237 0.12105041 0.1091887 0.09211122
0.056713138 0.12513717 0.0071501164 -0.035780422 -0.087040156 0.03559971 -0.096738584 -0.03680017
-0.016040096 -0.022907525 -0.046350244 0.010247556 -0.054954037 -0.016546955 -0.068398416 -0.08620227
-0.004387757 -0.061135158 -0.030704256 0.01845761 -0.048026044 0.0029465077 -0.0538689 -0.011690139
-0.0022003746 -0.053803712 -0.02965676 -0.0071868403 -0.02181651 0.1283616 0.09202826 0.05733981
0.17561959 0.0035761863 0.07085914 -0.04298837 -0.0128725385 -0.03592273 -0.09520229 -0.097132444
-0.1942756 -0.02596617 -0.059642002 -0.016289353 -0.0609264 -0.13569313 -0.13212304 -0.15302306
-0.056950152 -0.13980766 -0.044494968 -0.12091162 -0.10672493 -0.07577968 -0.13802467 -0.10751487
-0.15286188 -0.14554258 -0.16963996 -0.109455414 -0.1923007 0.005213878 -0.17048876 -0.20479152
-0.16248298 -0.001164258 -0.002780625 -0.048792887 0.009259525 0.058238942 0.06422083 0.057673387
0.04317241 0.048546694 -0.021890288 -0.04353877 -0.04562044 0.024450228 -0.09693735 -0.06417348
-0.04122154 -0.07175504 -0.15549658 0.017470427 0.02869682 0.0038823083 0.03531705 0.052006174
0.011468696 -0.008154504 0.042055808 0.0065504643 0.01617566 0.09339065 -0.026917089 0.11642408
0.11044941 0.02200955 0.10921443 -0.0014169237 0.10595789 0.075604774 0.0355036 -0.03447579
0.09570279 -0.02415614 -0.017834997 -0.04852228 -0.053121723 -0.029389469 -0.23146279 -0.16557916
-0.16900928 -0.4086312 -0.22612298 -0.24922198 -0.3758038 0.031238742 -0.18761605 0.057855558
0.016618047 0.05451454 0.035921205 0.13145098 0.028835459 -0.02066277 0.017929746 0.060138684
-0.05991516 -0.0074938205 -0.16796716 -0.14735554 0.023765234 -0.28774777 -0.28848508 -0.07754509
-0.20250413 0.026578406 -0.079327986 0.043293793 -0.050533198 -0.020413721 -0.06870954 -0.075490616
0.068391316 -0.12716518 0.06649401 0.12990603 0.059527613 0.115659274 0.09743894 0.05701965
0.18586756 0.10643812 0.14267622 -0.05997252 -0.059061445 0.0055161 -0.10333315 0.010452465
0.0027625493 -0.07401463 0.0076052165 -0.00077422516 0.013899497 -0.013019742 0.073562145 -0.061824553
-0.10396283 -0.018098315 -0.1937143 -0.088296495 -0.14665931 -0.1109485 -0.022480644 0.06260694
-0.17872672 0.018799718 -0.06281067 -0.091198295 0.005539742 -0.09619099 0.07016325 -0.0569766
0.07296495 0.06507613 -0.024123026 -0.0664674 -0.02715744 -0.06804986 0.16518325 -0.03514699
-0.0025081474 0.06525037 0.03498697 -0.012709125 0.015574968 0.012397257 0.086455464 0.08755834
0.0062242774 0.017928068 -0.0066032745 -0.0003787099 0.09437921 0.0029246053 0.0065497416 0.1106504
-0.010448564 -0.02214868 -0.0019379447 0.065444686 0.035312388 0.009813126 0.05955832 0.016151026
0.012392997 -0.019836156 -0.039453167 0.027059356 0.07807066 0.071323134 0.18251772 0.086046614
0.07137104 0.08300498 0.039547 0.09922818 0.007907637 0.11056335 0.15008599 0.10382645
0.12419692 0.11177766 0.039956305 0.046700887 0.05575485 0.08060046 0.12528254 0.18890838
00000000: ef58 f8bb 18a3 15bd cb36 46bd 98d4 7d3c
00000010: 1cc3 66bd 7b6d a6bd 41d6 873c bcef 10be
00000020: eb68 2ebd 5d51 fb3d 51f5 403c 0d53 103e
00000030: db64 c03d 47e9 f73d 539e df3d cfa4 bc3d
00000040: 094c 683d f523 003e 864b ea3b 7e8e 12bd
00000050: 1c42 b2bd 00d1 113d e11e c6bd c6bb 16bd
00000060: 8566 83bc 90a8 bbbc c1d9 3dbd 5de5 273c
00000070: 7c17 61bd 7b8d 87bc 7814 8cbd d18a b0bd
00000080: 2cc7 8fbb dc68 7abd 7e87 fbbc 6a34 973c
00000090: f5b6 44bd 321a 413b a3a5 5cbd ff87 3fbc
000000a0: 2934 10bb 4861 5cbd bcf2 f2bc 967f ebbb
000000b0: 8ab8 b2bc 3971 033e 5079 bc3d 26dd 6a3d
000000c0: 9fd5 333e 735e 6a3b 991e 913d 9314 30bd
000000d0: 57e7 52bc b623 13bd 6bf9 c2bd 60ed c6bd
000000e0: 2ff0 46be 01b7 d4bc 2c4b 74bd 4071 85bc
000000f0: f68d 79bd 24f3 0abe 434b 07be 14b2 1cbe
00000100: 9044 69bd bd29 0fbe 5b40 36bd 83a0 f7bd
00000110: 9a92 dabd 6032 9bbd 5756 0dbe c230 dcbd
00000120: d387 1cbe 1d09 15be 19b6 2dbe 292a e0bd
00000130: 7aea 44be 2ed9 aa3b 9b94 2ebe deb4 51be
00000140: f061 26be 049a 98ba 253b 36bb 0ddb 47bd
00000150: 43b5 173c f58b 6e3d 3686 833d ee3a 6c3d
00000160: 8ed5 303d e6d8 463d 4353 b3bc b655 32bd
00000170: 80dc 3abd d84b c83c 1787 c6bd 636d 83bd
00000180: ebd7 28bd 4ef4 92bd 7f3a 1fbe 241e 8f3c
00000190: 9815 eb3c 536e 7e3b 9ca8 103d 6d04 553d
000001a0: 33e7 3b3c 789a 05bc b642 2c3d 47a5 d63b
000001b0: d182 843c 9943 bf3d 3a81 dcbc c06f ee3d
000001c0: 4d33 e23d 5f4d b43c d1ab df3d 12b8 b9ba
000001d0: 7300 d93d add6 9a3d 396c 113d 7c36 0dbd
000001e0: d3ff c33d 19e3 c5bc b31a 92bc 4cbf 46bd
000001f0: 2a96 59bd 2fc2 f0bc 9504 6dbe 958d 29be
00000200: c510 2dbe 1c38 d1be c88c 67be 0c34 7fbe
00000210: 5b69 c0be 64e8 ff3c 6c1e 40be f3f9 6c3d
00000220: 9222 883c a34a 5f3d 1d22 133d 169b 063e
00000230: 5738 ec3c f844 a9bc 67e1 923c fb53 763d
00000240: 9969 75bd b98e f5bb 95ff 2bbe 5fe4 16be
00000250: 4faf c23c ad53 93be 51b4 93be f6cf 9ebd
00000260: 3e5d 4fbe f5ba d93c b676 a2bd d554 313d
00000270: e6fb 4ebd ad3a a7bc 96b7 8cbd d39a 9abd
00000280: bf10 8c3d 9737 02be 032e 883d 1606 053e
00000290: 3ad3 733d c5de ec3d 118e c73d 708d 693d
000002a0: 1154 3e3e 3bfc d93d b719 123e bfa5 75bd
000002b0: 6aea 71bd 67c0 b43b 55a0 d3bd d140 2b3c
000002c0: e30b 353b fb94 97bd 2e35 f93b 5ff5 4aba
000002d0: b7ba 633c c250 55bc c0a7 963d be3b 7dbd
000002e0: 77ea d4bd eb42 94bc 0b5d 46be cbd4 b4bd
000002f0: dc2d 16be f838 e3bd 5429 b8bc 1138 803d
00000300: 2304 37be de01 9a3c e1a2 80bd 2cc6 babd
00000310: b986 b53b c8ff c4bd c0b1 8f3d 4c60 69bd
00000320: a66e 953d a246 853d a79d c5bc 0f20 88bd
00000330: 4879 debc ba5d 8bbd cc25 293e 4af6 0fbd
00000340: bb5f 24bb fca1 853d 7f4e 0f3d ef39 50bc
00000350: 272e 7f3c dd1d 4b3c 900f b13d c951 b33d
00000360: 06f5 cb3b e2dd 923c 4860 d8bb 958d c6b9
00000370: e349 c13d bcaa 3f3b 379f d63b ad9c e23d
00000380: 7430 2bbc 2671 b5bc a202 feba dd07 863d
00000390: b9a3 103d 3cc7 203c 6df3 733d 284f 843c
000003a0: ff0b 4b3c 6f7f a2bc a599 21bd 95ab dd3c
000003b0: 83e3 9f3d dd11 923d ede5 3a3e 3539 b03d
000003c0: fb2a 923d 84fe a93d 09fc 213d 2538 cb3d
000003d0: 098f 013c 0a6f e23d 24b0 193e f6a2 d43d
000003e0: f45a fe3d b0eb e43d 39a9 233d 6e49 3f3d
000003f0: 335f 643d db11 a53d 114a 003e 3371 413e

bias f4 [12]
0.37703988 -0.4515143 -0.1512353 0.29880485 -0.41068706 0.13453281 0.27232382 0.23380183
0.08409901 -0.67139673 -0.2251536 -0.90407187
00000000: 5f0b c13e e22c e7be 6ddd 1abe f3fc 983e
00000010: 9345 d2be f8c2 093e 076e 8b3e bf69 6f3e
00000020: 1a3c ac3d a8e0 2bbf aa8e 66be 4171 67bf

weight f4 [12, 12, 3]
-0.029461933 -0.051305618 -0.058730394 0.0012305101 -0.07790782 -0.09176557 -0.11922396 -0.18228942
-0.11687532 0.046242435 0.098740734 0.06200428 0.036359917 -0.026931852 -0.042105306 -0.062814936
-0.10694515 -0.06623376 0.18450692 0.29495043 0.1675703 -0.030691005 -0.046072084 -0.032784145
-0.048075415 -0.05835526 -0.03455944 -0.07046446 -0.10138079 -0.07780641 0.08029181 0.12333039
0.055394284 0.21782206 0.11542115 0.03863525 -0.019737441 -0.021468423 0.012894962 -0.16100544
-0.23290773 -0.2185854 0.1250465 0.19187145 0.13370317 0.05113069 0.07078081 0.08946919
0.07320527 0.10513484 0.046091646 -0.015662016 -0.019862067 -0.021999376 0.075590566 0.1584538
0.110481575 -0.11419322 -0.16310851 -0.12445177 -0.03768721 -0.043013632 -0.0079528345 0.035260256
0.048011683 0.028156176 0.024888463 0.08138965 0.07208221 0.032757875 0.07653844 -0.042894162
-0.0047513465 0.017458448 0.052713238 -0.1677632 -0.19120343 -0.1317382 0.23550466 0.36501575
0.23306404 -0.0033394452 -0.013908747 0.033160787 0.039192505 0.10648431 0.09091143 0.044907536
0.06864176 0.04315103 -0.09707941 -0.11770863 -0.049750317 -0.07292154 -0.11629175 -0.09440648
-0.0019010764 0.021022808 0.029572774 0.10392014 0.15194295 0.102329694 -0.047022093 -0.031177785
0.022950841 -0.10418766 -0.06226871 -0.10060002 0.0066303206 0.025983714 0.013867312 0.08412566
0.13953209 0.13784432 -0.015008006 -0.017101865 -0.018752797 -0.09520931 -0.18270208 -0.18234855
-0.06386591 -0.03154154 -0.002812723 0.0012334696 0.018698588 0.019563787 -0.1267044 -0.20277138
-0.11289705 0.087019056 0.103317276 0.069225445 0.026077276 0.029853845 0.0031540452 0.02232767
0.035166502 0.035710372 -0.12353966 -0.20634711 -0.12313003 -0.08556549 -0.06449888 -0.016101845
-0.040920913 -0.045777477 -0.070914134 0.10018053 0.033602316 0.025691725 -0.19400455 -0.28636894
-0.19267803 0.015548109 0.057678804 0.024599092 -0.006232688 -0.081352025 -0.07024107 -0.07686151
-0.10342092 -0.07280245 0.14736044 0.21946028 0.119385734 0.036027815 0.035284214 0.028396826
-0.031098897 -0.04375371 -0.039740957 -0.08821318 -0.13298506 -0.08411795 0.06582093 0.09803834
0.026626825 0.20655037 0.10610247 0.042621445 -0.011419984 0.0027516996 0.03229977 -0.16917183
-0.21077593 -0.16564535 0.18610075 0.27677408 0.17953555 0.023999626 0.03211715 0.05623755
0.05437747 0.10590584 0.07413288 0.016714545 0.027124396 0.014777539 -0.010966185 0.018892648
0.030208144 -0.095383085 -0.14127463 -0.11113253 -0.020611085 -0.007561967 0.011700701 0.07105818
0.09986223 0.06344508 -0.011088718 0.021284454 0.047004167 -0.034533203 -0.011882321 -0.059586246
-0.12530245 -0.1897392 -0.105720505 0.056084078 0.035836175 0.018225877 0.0723795 0.12518975
0.089855015 -0.3345881 -0.3582435 -0.2700258 -0.092180766 -0.08468591 -0.011481037 -0.04413476
-0.10269834 -0.054811254 -0.16255613 -0.27401286 -0.17276536 0.10984144 0.12418392 0.05460881
-0.046896942 -0.05855671 -0.046086688 -0.00022595357 -0.006691937 -0.0088781305 -0.059389796 -0.1275566
-0.10060559 0.14880699 0.21292706 0.20938386 -0.11144453 -0.16017693 -0.1431159 0.039998706
00000000: 275a f1bc d725 52bd 488f 70bd 1149 a13a
00000010: 238e 9fbd 96ef bbbd b12b f4bd 14aa 3abe
00000020: 545c efbd b568 3d3d 9538 ca3d 33f8 7d3d
00000030: 23ee 143d 30a0 dcbc 9d76 2cbd 1ea5 80bd
00000040: 0f06 dbbd 91a5 87bd 62ef 3c3e be03 973e
00000050: 8c97 2b3e b46b fbbc 15b6 3cbd ab48 06bd
00000060: baea 44bd ed05 6fbd 338e 0dbd ac4f 90bd
00000070: bba0 cfbd f858 9fbd 0870 a43d a594 fc3d
00000080: 1ee5 623d bf0c 5f3e ed61 ec3d ff3f 1e3d
00000090: 6ab0 a1bc 8cde afbc 6445 533c 9cde 24be
000000a0: 5d7f 6ebe dad4 5fbe 310c 003e f379 443e
000000b0: 7ce9 083e 6a6e 513d 88f5 903d 9f3b b73d
000000c0: a5ec 953d ef50 d73d 98ca 3c3d a14d 80bc
000000d0: c6b5 a2bc 0938 b4bc 3acf 9a3d b741 223e
000000e0: 2a44 e23d 23de e9bd eb05 27be 92e0 febd
000000f0: e75d 1abd 102f 30bd 9b4c 02bc 0f6d 103d
00000100: e6a7 443d c8a7 e63c e4e2 cb3c 9eaf a63d
00000110: d69f 933d 1f2d 063d 30c0 9c3d cab1 2fbd
00000120: 2fb1 9bbb 0505 8f3c d6e9 573d 1eca 2bbe
00000130: d5ca 43be 61e6 06be 2228 713e 58e3 ba3e
00000140: 57a8 6e3e 98da 5abb 83e1 63bc 9bd3 073d
00000150: 5288 203d 7214 da3d c62f ba3d f7f0 373d
00000160: 0d94 8c3d 22bf 303d 92d1 c6bd 3911 f1bd
00000170: fdc6 4bbd e357 95bd 5e2a eebd 2f58 c1bd
00000180: 8a2d f9ba 0638 ac3c 9a42 f23c 15d4 d43d
00000190: ef96 1b3e 3b92 d13d 3d9a 40bd 8e68 ffbc
000001a0: 6703 bc3c 5760 d5bd 7a0d 7fbd 6207 cebd
000001b0: 2943 d93b ccdb d43c b933 633c 134a ac3d
000001c0: 80e1 0e3e 1027 0d3e 24e4 75bc 3619 8cbc
000001d0: 779f 99bc 19fd c2bd 4116 3bbe 94b9 3abe
000001e0: 21cc 82bd b431 01bd a955 38bb 5fac a13a
000001f0: c82d 993c 3c44 a03c ccbe 01be 4da3 4fbe
00000200: 9236 e7bd 0c37 b23d 0298 d33d 12c6 8d3d
00000210: 03a0 d53c 0d90 f43c 19b4 4e3b 85e8 b63c
00000220: c00a 103d 0a45 123d 5c02 fdbd a84c 53be
00000230: 992b fcbd f63c afbd fd17 84bd 04e8 83bc
00000240: b09c 27bd 2a81 3bbd 6e3b 91bd 732b cd3d
00000250: 95a2 093d 7477 d23c 21a9 46be f39e 92be
00000260: 644d 45be 7fbd 7e3c 9c40 6c3d 0984 c93c
00000270: 943b ccbb e49b a6bd 8dda 8fbd 9169 9dbd
00000280: 59ce d3bd 7319 95bd a8e5 163e 32ba 603e
00000290: 8280 f43d e791 133d 2e86 103d 76a0 e83c
000002a0: 1dc3 febc 1737 33bd 6ac7 22bd 1da9 b4bd
000002b0: 3c2d 08be 0846 acbd 20cd 863d 53c8 c83d
000002c0: 8020 da3c f181 533e 404c d93d d393 2e3d
000002d0: e21a 3bbc dc55 343b c34c 043d 613b 2dbe
000002e0: a5d5 57be ef9e 29be 3291 3e3e 55b5 8d3e
000002f0: 2bd8 373e dd9a c43c 468d 033d 5859 663d
00000300: e9ba 5e3d 29e5 d83d fbd2 973d f1ec 883c
00000310: fb33 de3c 7e1d 723c 83ab 33bc c1c4 9a3c
00000320: 1277 f73c 3558 c3bd 4caa 10be 7499 e3bd
00000330: 94d8 a8bc 60ca f7bb 4cb4 3f3c f386 913d
00000340: 9284 cc3d 7eef 813d 74ad 35bc bc5c ae3c
00000350: 7187 403d b072 0dbd 11ae 42bc b510 74bd
00000360: 494f 00be fe4a 42be fe83 d8bd 6bb8 653d
00000370: f4c8 123d 6f4e 953c b43b 943d be31 003e
00000380: e805 b83d 224f abbe b16b b7be d240 8abe
00000390: 45c9 bcbd ce6f adbd f61a 3cbc a6c6 34bd
000003a0: 8253 d2bd c481 60bd 1d75 26be 6a4b 8cbe
000003b0: 67e9 30be 8df4 e03d 2454 fe3d 7dad 5f3d
000003c0: 0217 40bd 29d9 6fbd 65c5 3cbd f3ed 6cb9
000003d0: 0948 dbbb 9475 11bc b742 73bd 339e 02be
000003e0: 4e0a cebd dc60 183e 8d09 5a3e b968 563e
000003f0: 083d e4bd 6c05 24be f98c 12be afd5 233d

bias f4 [12]
0.27811328 0.44948217 -0.69236183 1.817807 0.06777484 -0.38115406 -1.6417896 -1.3094729
0.44842923 -0.95761997 -0.8403507 -0.17748535
00000000: dd64 8e3e 8722 e63e a03e 31bf e6ad e83f
00000010: 89cd 8a3d a026 c3be 2926 d2bf cf9c a7bf
00000020: 8498 e53e 9526 75bf 3921 57bf b8be 35be
